model_states/network_v1_1.pth (torch, 901130 bytes, 30 tensors)

network.0.conv_0.weight f4 [16, 2, 3, 3]
000000 59 62 08 3c 3d 72 b2 be ca f3 3b be 06 33 4d 3e
       0.008324229 -0.34852782 -0.18354717 0.20038995
000010 f8 62 3d be 55 ab 7e be e4 a6 34 3e 58 a0 df 3d
       -0.18494785 -0.24870045 0.17641789 0.10919255
000020 0f 06 c7 3c 17 8c 9a bd c6 c3 e9 3d 04 11 08 be
       0.024294881 -0.07546251 0.11414294 -0.13287741
000030 d9 a4 03 3e 72 d3 37 be cb 30 16 3e a4 e4 b9 3d
       0.12855853 -0.17951754 0.1466705 0.09076813
000040 cf 1f 94 bd af 6c 70 3d 0a 5e 40 be 15 6a 97 3b
       -0.072326295 0.0586974 -0.18785873 0.0046208003
000050 3d ab 0e 3d f5 19 f9 bc 0c 42 25 3b 80 5d 57 3e
       0.034831274 -0.030407885 0.002521637 0.21031761
000060 c9 0e 36 3e 27 c5 9f 3e 96 6e 1e 3e cf 76 c0 bd
       0.17779078 0.31205103 0.15471873 -0.09397661
000070 fc bd a2 bd 77 e2 1d 3e b2 02 1b be 9d 60 09 3d
       -0.07946393 0.1541842 -0.15137747 0.033539403
000080 4e 29 33 3b c7 b0 29 3d 94 89 9c 3d c7 5b 9d bd
       0.0027337852 0.041428354 0.076434284 -0.07683521
000090 18 19 f5 bd 7f ad ef bd 44 59 b5 bc 08 e4 33 be
       -0.11967677 -0.11703014 -0.022137292 -0.17567456
0000a0 cb f0 28 be 4d 98 04 be df cf 90 bc 6d 79 e2 bd
       -0.16498105 -0.12948723 -0.017677246 -0.110583164
0000b0 02 c0 ae 3e de e0 36 be b9 74 1a be 81 37 9f 3e
       0.34130865 -0.17859218 -0.15083589 0.31097034
0000c0 b2 fc 40 be 1b bb d5 bc 48 d7 8f bd a0 19 a5 3e
       -0.18846396 -0.026090195 -0.070234835 0.32246113
0000d0 6a b9 cc 3c 9b be f7 3d 50 7b 8a be c2 d2 a0 be
       0.024990756 0.12096902 -0.27047205 -0.31410795
0000e0 0f cd 93 3e 34 83 6e 3c 1f 57 f5 bd bb 06 89 3e
       0.28867385 0.014557648 -0.11979508 0.26762947
0000f0 a8 da 99 3d 01 ef 52 bd ed 31 ed 3d 9b 4f 47 3e
       0.075124085 -0.051497463 0.11581788 0.19463961
000100 35 0d e6 3d c7 2e bd bd 8c 13 a2 bb bf 45 20 be
       0.11232988 -0.09237438 -0.004946178 -0.15651606
000110 2f 94 96 3c e7 dc ba 3c f6 e3 d0 3d df 84 11 3e
       0.018381206 0.022810413 0.1019973 0.14210843
000120 12 20 47 be ac 7c 8e 3d 9e 19 5c 3e b9 48 42 3d
       -0.19445828 0.06957373 0.21494147 0.047432635
000130 dc cc 2a be 14 b3 a3 3e 65 69 35 3e 6f 33 61 3e
       -0.1667971 0.31972563 0.17715986 0.21992277
000140 15 be b0 bc 8b 98 4f be e0 ec 7b 3e 2c c1 1f 3d
       -0.021575013 -0.20273034 0.2460208 0.039002582
000150 d9 50 05 be 5a 31 25 3e 1d 43 46 be ad 6c 1b 3d
       -0.13019122 0.16132107 -0.19361539 0.03794544
000160 c1 1a 7d bc 76 57 f6 bd ee 10 f0 bd a2 80 ea bd
       -0.015448273 -0.120284006 -0.11721979 -0.11450316
000170 50 de 70 3e ce 7a 80 be 72 73 92 be d2 79 28 be
       0.23522305 -0.25093693 -0.28603703 -0.16452721
000180 61 23 40 3e 96 c5 89 bd cd e3 17 bd 0c ae 36 3e
       0.18763496 -0.0672714 -0.037082482 0.17839831
000190 23 1e 4c be ca ac 79 3e 67 14 b8 3c e3 6b ee bd
       -0.19933371 0.2438232 0.022470666 -0.116416715
0001a0 c4 d7 51 3e ac 8a 33 be 9b b9 76 bd c9 82 a8 bb
       0.20492464 -0.17533368 -0.0602356 -0.005142544
0001b0 eb a4 c0 bd ff 45 06 be 17 e8 f9 3d d4 d6 8d 3e
       -0.094064556 -0.13112639 0.12202471 0.27702963
0001c0 3f f3 6a 3e 7d fb 1d 3e b4 a8 ab bc b8 90 94 3e
       0.22944354 0.15427966 -0.020954467 0.29016662
0001d0 c7 e6 63 3d c5 bc 3c be 4b 2d 91 3d af b9 02 be
       0.05564001 -0.18431385 0.07088717 -0.12766145
0001e0 1f 92 7c 3d b2 b4 33 be b9 89 c7 bd be af 4f 3e
       0.06166279 -0.17549399 -0.097430654 0.20281884
0001f0 a4 80 84 bd f2 27 39 3e 40 46 5f 3d 13 00 c4 3d
       -0.06469849 0.18081644 0.054510355 0.09570327
000200 11 ef 7c 3d 96 e5 3b bd 18 f3 4e 3d 0f bf c6 3e
       0.06175143 -0.045873247 0.0505248 0.3881764
000210 7a 58 02 3d 53 ef 1f be c8 5c 15 bd 86 23 05 3e
       0.03182266 -0.15618639 -0.036465436 0.13001832
000220 f1 8a 57 be 98 20 c8 3d 1b e9 66 be 2e cb 25 be
       -0.21049096 0.09771842 -0.2254986 -0.16190788
000230 18 c8 a6 bd 40 f9 99 3d ab a2 bd 3b 93 db 15 3e
       -0.081436336 0.07518244 0.005787214 0.14634542
000240 44 da 60 3e 12 7d 05 3e 27 7f ac 3d 47 02 a3 be
       0.21958262 0.13035992 0.0842269 -0.31837675
000250 58 19 f1 bd ce 6a b7 3e 5b c1 2e be 37 fb 10 3e
       -0.11772412 0.35823673 -0.17065947 0.14158331
000260 be 2b f6 3d c1 e3 b9 3d dc d1 c5 bd 81 9e c0 3d
       0.12020062 0.09076644 -0.09659168 0.09405232
000270 3e 15 19 be 59 53 a8 3d e1 e2 e9 3d e4 22 26 be
       -0.1494951 0.08219022 0.11420227 -0.16224247
000280 26 c4 32 be f7 4b 24 3e a4 1c 65 be b4 7b 9a be
       -0.17457637 0.16044603 -0.22374207 -0.30172503
000290 45 d3 c8 3c a6 64 75 be 2d 37 fb 3c 79 a9 97 be
       0.024514804 -0.23964176 0.030665958 -0.29621485
0002a0 f4 30 a4 bd 90 2b 70 3e c7 62 bb 3d b2 aa 00 3e
       -0.080171496 0.23454118 0.091497 0.12565115
0002b0 4d e9 84 bc f6 5e 76 3c 76 fd 24 be 85 91 bb 3d
       -0.016224528 0.015037289 -0.16112313 0.09158615
0002c0 40 70 f7 bc a1 9f cf bd 59 c9 d0 bd fd 34 e3 bd
       -0.030204892 -0.10137869 -0.10194654 -0.11094091
0002d0 21 51 db bd 3c 70 bd 3e 84 bc aa 3e d9 cf 19 3e
       -0.107088335 0.3699969 0.3334695 0.15020694
0002e0 a1 c4 f6 3c 34 fb 12 bd 66 8f 67 3e 26 36 0a bd
       0.030123057 -0.035884097 0.22613296 -0.033743046
0002f0 79 8d ec 3c d5 cb f3 3d ed 5b 5d be 88 00 9a bc
       0.028876053 0.11904112 -0.21617098 -0.018799081
000300 28 e8 34 3e 9b 60 b3 bd 60 ba 4f 3e 80 92 01 be
       0.17666686 -0.087586604 0.2028594 -0.12653542
000310 43 9e 0c bd 6c 26 69 3d 82 45 a9 3b 2a 14 87 be
       -0.034330618 0.056921408 0.0051657567 -0.2638257
000320 e5 22 4c be f4 74 8f be 3c 74 24 be 7f cd 7b be
       -0.19935186 -0.28018916 -0.16059965 -0.2459011
000330 15 95 d7 3d d6 ab 31 be af 7d 90 bd 74 02 f1 bd
       0.10526482 -0.17350706 -0.07055222 -0.11768046
000340 aa fd ed 3d eb 6a 0b 3d 1d 61 11 bc 4c 7d 47 be
       0.11620648 0.03403751 -0.008873251 -0.1948139
000350 ce 12 ed 3d 83 99 dc 3d 62 ad db 3d d6 95 82 3d
       0.11575852 0.107714675 0.107264295 0.06376235
000360 15 de 0b 3c d5 04 97 3c 45 d1 22 3e 2c 98 80 3e
       0.008536835 0.018434921 0.15900142 0.25116098
000370 ca cf 8b 3e 42 59 9e 3e fe e5 a3 bc 7a 82 69 be
       0.27306968 0.30927473 -0.02000713 -0.22803679
000380 49 ad 9b 3e c4 fd 81 bd 79 a4 5a 3e 6f 31 40 3e
       0.30405644 -0.0634723 0.21351804 0.18768857
000390 ca 9a f9 bd a9 54 3d bd 86 b9 f0 bb f3 dc b5 bc
       -0.12187727 -0.046223316 -0.007346335 -0.022200083
0003a0 e3 ec 44 bc c4 68 a1 bd 73 5c f0 3a bb 48 85 3d
       -0.012019369 -0.078813106 0.0018338099 0.06508013
0003b0 fb 0e 47 bd 56 3a 96 bd f0 a1 a3 3e e9 6b 92 be
       -0.04859827 -0.073353454 0.31959486 -0.28597954
0003c0 e5 01 06 bd ef 73 63 3e b6 3e 55 be 1b db 98 be
       -0.03271665 0.22212194 -0.20824704 -0.29854664
0003d0 b0 ad 0c be 10 60 6d be ac f6 ad bd ce 15 0b 3c
       -0.13738132 -0.23181176 -0.084943146 0.008489085
0003e0 93 79 8b 3e fd c2 32 3e e8 24 c7 bc 80 8f 61 3e
       0.2724119 0.17457195 -0.02430959 0.22027397
0003f0 1a 97 c6 3d e5 f4 8a bd 95 50 82 3e 82 7f 3f 3d
       0.09696789 -0.06784991 0.25452104 0.04675246

network.0.conv_0.bias f4 [16]
000000 f0 b7 ea 3c 66 2d a3 bd 7b fe 6c 3c b9 2d 88 bd
       0.028652161 -0.079676434 0.01446497 -0.06649346
000010 56 7c 90 bd 9e 32 8e 3d 3b 93 f5 bd ff b7 27 3d
       -0.07054965 0.06943248 -0.119909726 0.040946957
000020 e3 72 17 bc 29 bf 29 3e f3 64 15 be 5c b0 12 3e
       -0.0092437 0.16576828 -0.1458929 0.14325088
000030 ed 96 16 be 86 ef 61 3d ad 01 fb bd ce cb 16 be
       -0.14706011 0.055160068 -0.12256179 -0.14726183

network.1.conv_1.weight f4 [16, 16, 3, 3]
000000 75 ff a2 3d 22 fa 91 3d 5f ac e6 3d dd 7c 13 3d
       0.07958881 0.07127787 0.11263346 0.03600775
000010 fa d8 1b 3d 79 c8 2d be 63 4d 01 be 80 34 f7 3b
       0.03804872 -0.16971005 -0.12627177 0.0075441003
000020 e2 33 77 3b 18 45 97 bc ec 74 59 3d 5f 27 f3 3c
       0.0037720134 -0.018465564 0.05309002 0.02968186
000030 a3 42 b2 3d f2 71 5e 3d 40 7a 63 3d 3e b8 21 3c
       0.08704116 0.054307885 0.05553651 0.009870587
000040 9a 19 97 3c 9f 27 ac 3c 7e 7b b4 3b 66 69 d0 3b
       0.018444825 0.021014987 0.0055078855 0.0063602207
000050 81 fc 21 3d 6e 34 6d bd 63 b8 45 bd 3f bc fd bd
       0.039547447 -0.05791133 -0.048271548 -0.12389421
000060 7c c7 c6 bd 6b e0 7f bd 4e 51 ab 3c 42 0a cd bc
       -0.097060174 -0.06246988 0.020912793 -0.025029305
000070 1e 0b 71 3d 5b 2f 29 bd 92 2f 99 3d fc 61 8c 3d
       0.058848493 -0.041304927 0.074797764 0.068546265
000080 b7 74 88 3d d7 20 17 bd 9a 2f 07 bc c5 0f d3 3d
       0.066628866 -0.036896553 -0.008251095 0.10305742
000090 2c 9f 4d 3c 62 90 32 3d 65 9d e0 3c 55 25 e2 3d
       0.012550157 0.043594725 0.027418802 0.11042277
0000a0 5a 50 c4 3d d5 d9 3d 3d 89 62 74 3d b0 d5 c8 bd
       0.09585638 0.04635032 0.059664283 -0.09806383
0000b0 81 0e 1d bc 71 00 59 bd 80 6c 1e 3c fd 6d f7 3b
       -0.0095859775 -0.052978937 0.009669423 0.0075509534
0000c0 de f4 92 bd 75 32 e9 3c 63 10 26 be 47 97 20 be
       -0.07175611 0.028466443 -0.16217189 -0.15682708
0000d0 f9 0f 44 bd 2a 2c bc 3d 1b 55 ab 3c 27 fc 91 bb
       -0.047866795 0.09188111 0.020914605 -0.0044551077
0000e0 73 66 b0 3d 17 69 0e 3d 61 8a 72 3b 9b b8 16 bc
       0.08613291 0.03476819 0.003700875 -0.009199287
0000f0 a5 7b dc 3d 6d d1 78 3d b9 af d2 bd fb 6c 15 3d
       0.10765771 0.0607466 -0.10287423 0.036480885
000100 bb 34 4c bd d8 d4 74 3d 57 6a b6 3c 3a 38 a0 3d
       -0.049854975 0.059773296 0.022267504 0.07823224
000110 79 e2 e5 bc e4 73 43 3d 3f 29 07 3d a5 84 43 bd
       -0.028062092 0.047717944 0.03299832 -0.04773392
000120 96 49 88 3d e8 76 8e 3d 7c a0 1d 3d 71 1e 35 bd
       0.066546604 0.06956273 0.038483128 -0.044218484
000130 6f 01 67 bd 0b 17 98 3d 69 ec 32 bd e3 e2 cf bc
       -0.05639785 0.0742627 -0.04368249 -0.025376743
000140 61 4c 91 bc d0 a6 a9 bc 49 36 f6 3c a8 db cd 3b
       -0.017736616 -0.020709425 0.030055182 0.0062822886
000150 0a 8b 30 3c 74 9a 99 3d 30 f5 a7 bd 83 a3 59 bd
       0.010775337 0.07500163 -0.08201063 -0.053134453
000160 38 07 f2 bc ef b3 20 3b b2 f1 f9 3c 55 64 4b 3c
       -0.029544458 0.0024521311 0.030510757 0.012414058
000170 4e dc eb bd b8 7a 0a bc 84 db 12 3c 9b 28 04 3e
       -0.11516629 -0.00845211 0.008963469 0.12906115
000180 4b 0c 2d 3d b1 b1 7b bd 85 92 80 bd 4d a7 55 3b
       0.04224805 -0.061448757 -0.062779464 0.003260094
000190 5b 68 e0 bc b6 eb 32 3d 0b c8 3a 3d 11 c3 54 bd
       -0.02739351 0.043681823 0.045600932 -0.051943842
0001a0 1f ab b8 bd 8c 5b 0c bd 76 73 95 3d a6 88 1f 3d
       -0.09017014 -0.034266993 0.07297413 0.038948677
0001b0 84 bc 6a 3d 61 94 79 3c e0 31 a2 3d e1 2e 9e bc
       0.05730869 0.01523313 0.07919669 -0.019309463
0001c0 79 26 84 bd 83 24 a0 3d 7a a5 d9 3d 31 d3 38 3d
       -0.064526506 0.07819464 0.10627265 0.045123283
0001d0 95 72 8b bd a1 73 c0 3d 91 b9 03 3e 99 9b 6c 3d
       -0.06808964 0.093970545 0.12863757 0.057765577
0001e0 20 ed af 3d 4d 8e b9 bc fd de 37 bd 59 4b 66 3c
       0.0859015 -0.022650862 -0.044890393 0.01405605
0001f0 42 d2 12 3d c0 d0 a7 bd 51 fa b5 3d d1 b9 3d bd
       0.03584505 -0.08194113 0.08885635 -0.046319786
000200 f1 e6 ef 3c 6b 7c de bc db 95 ab 3c 10 23 4b 3c
       0.029284926 -0.027158936 0.02094548 0.012398496
000210 58 7c fd 3c 0b e5 ef bd 4a 1e c0 3c 32 39 f5 3c
       0.03094308 -0.11713608 0.023451943 0.0299345
000220 69 4b 2a bd 59 e7 a1 3d 44 61 e9 bc d6 24 36 bb
       -0.041575823 0.07905454 -0.028488763 -0.0027792952
000230 e3 97 17 3c 78 fb d4 3c 8c 79 1b 3d 17 9d d8 bd
       0.009252521 0.025998816 0.037957713 -0.105768375
000240 f6 57 ba 3b 7b 7b 78 3c 8c bc 55 3d d8 52 21 3e
       0.0056867553 0.015166159 0.052181765 0.15754259
000250 43 b0 69 3b 36 a1 8a be 4b b7 db bb 9a 75 6b 3c
       0.0035658039 -0.2707612 -0.0067052 0.0143713
000260 26 a7 27 3d ec ea a4 bd 12 1f af 3b f7 7c 1d 3e
       0.04093089 -0.0805262 0.00534428 0.15379702
000270 6c 52 79 3d 30 d5 7a bd e9 8c cd 3d 05 5b 87 3d
       0.06086962 -0.061238468 0.10036642 0.066091575
000280 1d d2 15 3d dc 3f 9b bd 18 48 9a 3b 93 eb 3b 3d
       0.036577333 -0.075805396 0.0047083013 0.045878958
000290 d3 4f 2c 3d ac 60 c3 3d 0a e4 80 bd 09 bb fe bd
       0.042068314 0.09539923 -0.06293495 -0.12438018
0002a0 84 93 a5 3d 89 c1 55 3b 15 66 ba 3d 30 c7 d6 3b
       0.08084777 0.0032616577 0.09101502 0.0065545067
0002b0 2d 7f 83 bc a8 18 e4 bc 04 80 c7 3d fc 92 9e 3d
       -0.016051853 -0.027843788 0.09741214 0.07742879
0002c0 32 2a 07 bd 39 3c af bd 40 76 73 bd 5b 54 d2 3d
       -0.032999225 -0.085564084 -0.059438944 0.10269996
0002d0 4c 21 7c bd 72 85 27 be e2 bd 09 39 2b ce b2 3d
       -0.061555192 -0.16359499 0.00013136075 0.0873073
0002e0 d3 1c fa bb 4b dc 24 bb 69 3d 3b bd a9 db 12 bd
       -0.0076328306 -0.002515572 -0.045712862 -0.035854015
0002f0 20 49 98 3c 1f cb d7 3d 4b 15 8a bd a1 37 8e bd
       0.018589556 0.10536789 -0.067423426 -0.06944204
000300 77 25 0d 3e 4b 1d c0 bd a2 93 79 be 7a 63 91 bd
       0.13783823 -0.09380587 -0.24372724 -0.07099052
000310 50 a2 20 3c ae 7c bc 3c f5 b7 88 bc 8d 93 c2 3d
       0.009804323 0.02300867 -0.01668928 0.09500799
000320 4a a4 62 3d e8 d8 19 bc 82 e7 64 3d 50 f0 1a bd
       0.05533246 -0.009390093 0.055884846 -0.037826836
000330 f3 99 ff bc 2c f7 2a bd 1e dc 41 bc 80 88 e4 3c
       -0.031201338 -0.041739628 -0.011832265 0.02789712
000340 56 8a a3 3c 37 d0 d8 3c 79 96 3c 3d a7 6d 58 3d
       0.019963425 0.026466472 0.04604194 0.052838948
000350 ac c0 d0 3b 12 48 19 3c 9f 68 cc bd 61 91 6c bc
       0.0063706245 0.009355562 -0.099808924 -0.014438958
000360 90 37 7e 3d 33 e8 b3 bd 54 88 d6 bc 6a 42 2d bd
       0.062064707 -0.08784523 -0.026188053 -0.042299666
000370 f6 a7 28 3d a5 75 8f 3d 5d b5 93 3d 6d 6d f2 3c
       0.041175805 0.07004861 0.07212327 0.029593194
000380 1c 82 45 3d 82 38 d9 bc c6 9c bd 3d 9a 1c 8d bd
       0.048219785 -0.026516203 0.09258418 -0.06890221
000390 0b 6f b9 3c d7 56 f6 bd 67 7f 8c 3c 6d 48 93 bd
       0.022635957 -0.12028282 0.017150594 -0.071915485
0003a0 92 64 41 3d 40 b2 7b bd 6c 5f ba bd b9 c9 4a 3d
       0.047215052 -0.06144929 -0.091002315 0.049508784
0003b0 ca c0 ea bd f6 12 bc bd 86 81 02 3d a1 bd 03 3c
       -0.11462553 -0.09183304 0.031861804 0.0080408165
0003c0 9a ca 19 bc 01 26 bb 3c bb 5c 52 bc e8 6d c9 3d
       -0.009386683 0.02284527 -0.0128394915 0.09835416
0003d0 a6 42 c6 3c 1f f4 b5 bb e4 81 1f 3d f0 31 09 be
       0.024201702 -0.005552783 0.038942233 -0.13397956
0003e0 0f 8b 19 be d4 57 86 bd 6b 84 04 bc 11 77 4f 3d
       -0.14994453 -0.06559721 -0.0080882115 0.05065066
0003f0 12 d2 cb bd 70 55 74 3d 4c da 1e 3d 8f 6a a5 3b
       -0.09952177 0.059651792 0.038782403 0.005048103

network.1.conv_1.bias f4 [16]
000000 dc 7c 05 bd 30 bb b7 3c 53 47 bd bc 66 2f 08 3d
       -0.03258978 0.022428125 -0.0231053 0.033248328
000010 6e 78 de 3c dc 03 13 3c 47 38 04 3d 94 a8 30 bc
       0.027157035 0.008973088 0.032280233 -0.01078238
000020 ec ae 7e 3d 9e bb b0 3c 58 f5 4a 3d 9b 1f af 3c
       0.062178537 0.021573838 0.049550384 0.021377375
000030 1a 9c 71 39 97 72 8c 3b ea 01 3e 3d 0c 28 18 bb
       0.00023041703 0.004286121 0.046388544 -0.002321723

network.2.conv_2.weight f4 [16, 16, 3, 3]
000000 94 e0 d2 3c cb 2e 13 3d d7 e1 fe 3b a2 cb 8c 3d
       0.025741853 0.035933297 0.007778387 0.068747774
000010 17 61 42 bc 5e 93 fa bb 33 72 ec bd 3a 6a 1f 3d
       -0.011863968 -0.007646962 -0.11545219 0.038919665
000020 31 55 98 3c 0f e1 08 bd 7b 05 2a 3e af d9 bf bd
       0.01859531 -0.033417758 0.16603653 -0.09367692
000030 49 5b 25 bd fa 1c d7 3d 12 ae 93 3d 5b 95 f3 bb
       -0.04037026 0.10503574 0.07210936 -0.007433576
000040 f5 7b ad bd 34 66 8f bd d4 9e 5d 3d 5f 3d b4 bb
       -0.084709086 -0.070019156 0.05410655 -0.00550048
000050 ee e0 6e 3d ae 52 88 3b f8 08 91 b8 53 a0 84 bd
       0.05831998 0.004160247 -6.915809e-05 -0.06475892
000060 9f 38 92 3c b1 a7 6e 3d 2e c1 d1 bd 46 c1 24 3d
       0.017849265 0.05826539 -0.10241924 0.040223382
000070 86 fa d0 bd 3b 64 f3 bc f4 31 e3 bc 27 83 8b 3d
       -0.102040336 -0.02971088 -0.02773378 0.06812125
000080 c1 b8 c0 3a 12 06 0b 3d 41 72 43 3c 55 fd ca 3d
       0.0014703498 0.033941336 0.011929096 0.099116005
000090 21 25 00 3c cb d4 3f 3c 90 91 c1 bb 8d 61 19 bd
       0.007821352 0.011708449 -0.005907245 -0.037446547
0000a0 c2 85 bf bd f7 d2 52 3d d9 dc 89 bd 4e 7d ff 3c
       -0.09351684 0.051470723 -0.067315765 0.03118768
0000b0 08 51 cc 3a 47 d5 29 bc dc f7 fe bc a7 a0 84 3d
       0.0015588114 -0.010365791 -0.031124048 0.064759545
0000c0 a7 99 8a bd a6 46 1c 3d a2 a7 d9 bd d2 7f 83 3c
       -0.06767588 0.038153313 -0.106276765 0.01605216
0000d0 98 76 f8 3d a1 ce 94 bd 5e 65 a6 bd 15 6a ca bb
       0.12131995 -0.07265974 -0.08124803 -0.0061771967
0000e0 99 f9 1f 3d 94 b6 08 39 1b c6 ac bd aa 87 42 bc
       0.039056394 0.00013037986 -0.08436223 -0.011873165
0000f0 64 39 00 3d ed 28 84 3d 25 cc c4 bd 5d f2 a7 bc
       0.031304732 0.064531185 -0.0960925 -0.02050131
000100 01 a4 ad bd 89 98 18 3d 08 cb d7 3b 5e b1 4c bc
       -0.08478547 0.037254844 0.0065854825 -0.0124934595
000110 b5 5e 59 bd 05 6b 96 3d 02 0a 30 bc ee d3 96 3c
       -0.053068835 0.07344631 -0.010744574 0.018411603
000120 d7 f8 38 bd 3b a9 1f bd b8 78 35 3d a6 34 46 bd
       -0.045159187 -0.03897975 0.04430458 -0.048390053
000130 92 ef 07 bd 80 ff 95 3d 07 47 65 3c f1 57 f2 bd
       -0.033187456 0.073241234 0.013993985 -0.1183318
000140 f1 7c ed 3d c1 27 89 bc 7a f8 28 3d e0 1c 83 3d
       0.11596096 -0.016742589 0.04125259 0.06401992
000150 5b 5a 8a bc 61 43 95 bd a6 a2 03 3e f0 4c ba 3c
       -0.016888788 -0.07288242 0.12855014 0.022741765
000160 6c 1f 3c bd a2 85 98 3b d6 e2 84 3d e5 c0 f8 3d
       -0.045928404 0.004654602 0.06488578 0.12146167
000170 e7 e4 26 bd bd fe 92 3c 60 fe 96 bc d9 19 91 bd
       -0.040745642 0.017943734 -0.018431842 -0.07085008
000180 70 3a ad bd 27 64 7e bb df a1 86 3d 20 6f 56 3d
       -0.08458412 -0.003881702 0.06573843 0.05235207
000190 86 70 ba bc 33 30 48 be d7 22 da bd 28 d6 fe bb
       -0.022758733 -0.19549637 -0.106511764 -0.0077769943
0001a0 e6 94 85 bd 54 c2 7a bc a6 ef d4 ba 64 3e 29 3e
       -0.06522541 -0.0153051205 -0.0016245737 0.16527706
0001b0 21 e9 02 bd de 94 99 3d 99 26 2c bd 7b 05 9b 3d
       -0.03196061 0.07499097 -0.042028997 0.07569405
0001c0 2a 9c 54 3c 57 94 91 bd c0 d0 d7 bc f4 3b 59 bc
       0.012976686 -0.07108372 -0.026344657 -0.013258923
0001d0 4f 20 ce 3b 6b 74 99 bd 7f 56 a7 bb c3 28 c2 3d
       0.0062904726 -0.07492908 -0.0051067467 0.09480431
0001e0 4c 0a 7e bc e4 a4 b5 3d b5 e6 b2 bd dd 20 87 bc
       -0.015505385 0.08869341 -0.0873541 -0.016495163
0001f0 ca e6 1c bd 56 97 97 3d 9d 3c a0 3b 45 f8 51 bc
       -0.038306035 0.07401912 0.004890038 -0.01281554
000200 9c 53 70 bd 98 74 7b bc 84 c2 01 3e 99 5e 83 3c
       -0.058673486 -0.015347622 0.12671858 0.016036319
000210 b5 29 05 be ce 31 5d 3c 03 73 d0 3d d4 cb d3 bc
       -0.13004191 0.013500644 0.10178187 -0.025854029
000220 a6 ce 98 3d 07 a5 f1 bc 89 b6 d7 3b a3 c2 9e 3d
       0.0746129 -0.029497636 0.006583039 0.07751968
000230 81 19 2a bd 3f d9 cb bc 62 e0 d9 bc ea f7 9f bd
       -0.04152823 -0.024883864 -0.026596252 -0.07810958
000240 1b 38 4f 3d 68 5a 98 3a e6 2c 53 bc d1 32 24 bd
       0.050590616 0.0011623623 -0.012889123 -0.040087525
000250 2c ff 6d 3d 0f f9 5a bd 7f d2 51 bd 28 fd 12 3d
       0.05810468 -0.053460177 -0.051226135 0.03588596
000260 7c 62 26 bd 06 f1 0d bd 6f b3 3a 3e 93 48 94 bd
       -0.040621266 -0.034653686 0.18232511 -0.07240405
000270 bd 9a 97 bd 34 2c da bc c4 bf be 3b 6d 9c 40 bc
       -0.07402561 -0.026632406 0.0058212 -0.011756045
000280 ed 09 bd bd 9e 94 8d bd 47 f9 29 bd 06 51 89 3d
       -0.09230409 -0.06913112 -0.041497495 0.06704907
000290 f6 68 41 bd 4e df 9a 3d 0b 71 ec 3d 03 97 76 3c
       -0.04721924 0.07562123 0.11544999 0.015050652
0002a0 d5 eb d1 bd 8f 81 d5 3c 1f 00 cd bd 87 49 41 3d
       -0.102500595 0.026062755 -0.10009789 0.04718926
0002b0 07 ff 06 bd 87 2e a7 3b 78 cd 22 bd 40 33 41 3e
       -0.032958057 0.005101982 -0.03974673 0.18867207
0002c0 7b 3f b4 bd 99 24 8d bd 8d d6 cd 3c 9b fa 6c 3d
       -0.088011704 -0.06891746 0.02512672 0.057856183
0002d0 93 39 81 3d 35 bf 67 3d d5 39 a5 3d 44 8c 09 bd
       0.063098095 0.056578834 0.08067671 -0.033581033
0002e0 d1 e4 aa bd 20 1f 1f 3c 58 93 0b bd 99 ac 8e bd
       -0.083444245 0.009712011 -0.034076065 -0.06966514
0002f0 8f ba 2f 3d 3a a2 fc bb cc ec 93 bd de a9 be bb
       0.042902526 -0.0077097686 -0.072229 -0.0058185896
000300 53 f7 00 bd e4 5e 2a bd 09 2b d6 bc cf 6d c2 bc
       -0.031485867 -0.0415944 -0.026143568 -0.023734001
000310 f5 31 8e 3d ae 6e e4 bd 42 ee 53 bd b8 c8 98 bc
       0.06943122 -0.11153923 -0.051740892 -0.018650398
000320 0b 92 98 3d 70 33 a8 3c df ab 23 3d c9 43 2e bc
       0.074497305 0.02053234 0.03995883 -0.010636278
000330 b9 18 c5 3d 1e bc 85 3c b2 02 6e bd 4e 31 cd 3c
       0.09623856 0.016325053 -0.05810804 0.025047924
000340 af 22 b1 bd 11 39 55 3d f3 12 b9 bd f9 c6 38 3d
       -0.086491935 0.052056376 -0.090368174 0.04511163
000350 19 e7 06 bd 90 74 2f 3d e6 af d6 bc 7c e5 8c 3d
       -0.032935236 0.042835772 -0.026206922 0.06879708
000360 bf 89 a7 bc d7 96 b0 3d ae eb a5 bd 81 e2 88 bd
       -0.020451425 0.086225204 -0.08101593 -0.06683827
000370 e9 2c a4 bd 13 aa 16 3e 53 8d c1 bd 6d ac b7 bd
       -0.080163784 0.14713316 -0.094507836 -0.089684345
000380 5e 4e 28 3d a0 73 9c bc ba 53 a6 3d f3 1c d9 3d
       0.04109036 -0.019098103 0.08121438 0.10601225
000390 71 c7 2f bd 12 95 d1 bd 1d 8f 4b 3d 40 c6 e1 3c
       -0.04291481 -0.10233511 0.04969703 0.027560353
0003a0 70 f2 95 3c cc ca 1c bd f0 f0 a6 3c a9 eb 81 3d
       0.01830408 -0.03827934 0.02037856 0.06343777
0003b0 88 ee 8c bd 5f 8d ea 3d 22 67 83 3d 1b d9 b3 3c
       -0.06881434 0.11452746 0.064161554 0.02195411
0003c0 7e bc 75 bc 6a cb 54 bd 5c 75 e3 3b ce 3c 07 3d
       -0.014998553 -0.051951803 0.0069414806 0.033016972
0003d0 32 43 3f 3d fe 97 2c be db b5 a1 bd c5 c5 b3 3d
       0.04669494 -0.16854855 -0.07896014 0.08777956
0003e0 60 a4 b7 bc d9 c6 d0 bc ee 2a 8b 3c 5f 31 53 3d
       -0.022417247 -0.025485443 0.016988244 0.051560756
0003f0 7e a9 30 3d de 82 c7 3c 6a 89 5c 3d df 29 fd 3d
       0.04313039 0.024354395 0.053841986 0.12361502

network.2.conv_2.bias f4 [16]
000000 06 22 30 3d f1 bc 39 3d 69 a1 44 bd 7e 9a bd 3c
       0.043001197 0.045346204 -0.048005495 0.023144957
000010 f9 d5 28 3d 2d e5 17 3d ca e1 99 3b cb 52 85 3c
       0.041219685 0.037083793 0.0046961056 0.01627483
000020 e4 36 c0 3a ad 47 a3 3c f2 52 40 bc d2 8c 14 3d
       0.0014664796 0.019931639 -0.011738526 0.03626711
000030 7f 5b 4c bc 70 28 02 3b ad 7d ad bc 2a 54 5f bd
       -0.012472986 0.0019860528 -0.021178091 -0.054523624

network.3.conv_3.weight f4 [1, 16, 1, 1]
000000 a3 83 57 3e 2d d3 04 3e cb 3f 3e 3d d5 3d 13 be
       0.21046309 0.12971182 0.046447556 -0.14379056
000010 a2 e7 31 3e c6 17 51 3e 45 35 59 be 6b 94 61 be
       0.17373517 0.20419225 -0.21211727 -0.22029273
000020 56 ca 68 3e e5 52 3c 3e 6d 00 22 be 12 d0 4e 3e
       0.22733435 0.18390997 -0.15820475 0.2019656
000030 14 c8 69 3e 38 cf 75 be 9f 0c 34 3e 31 69 64 3d
       0.2283023 -0.24004829 0.1758294 0.05576438

network.5.linear_5.weight f4 [100, 625]
000000 f6 5d 95 bb cc a4 f8 bc 32 a3 6e 3c ee 9e d3 bc
       -0.00455832 -0.030352019 0.014565276 -0.02583262
000010 4d 84 da bc dc 5e cf bb c3 ca c8 bb 0a 3e 2c bc
       -0.026674414 -0.006328447 -0.0061276867 -0.010512838
000020 84 49 66 3c 12 b2 01 3d 9d e6 85 3c f4 56 f1 3c
       0.014055613 0.03166396 0.016345317 0.029460408
000030 6d 4e 4b 3b 04 02 ff bb 90 4e 9b 3c 3b 92 05 3d
       0.0031022087 -0.0077822227 0.01895836 0.03261016
000040 da 03 c0 3c 8a f9 b8 bc 6d f5 7c bb 06 04 aa bc
       0.023439337 -0.022579927 -0.0038598434 -0.020753872
000050 fc a7 0a 3c dd 7c e3 bb a7 37 f7 bc 11 f9 5c 3b
       0.008462902 -0.006942375 -0.030177904 0.003371779
000060 f4 b2 cb bc 6b 91 be 3b dc 3d 8a bc 69 0f 0b 3c
       -0.024865605 0.005815675 -0.0168752 0.008487561
000070 1b 5b 20 bd 9e 39 08 bd ef a1 76 bc 13 b5 83 bd
       -0.039149385 -0.033258073 -0.015053256 -0.064310215
000080 a5 e6 00 bd e6 6b c7 3c b5 17 39 bd 19 79 04 bd
       -0.03146996 0.024343442 -0.045188624 -0.03234205
000090 9f 95 04 3c e6 a4 a9 bc d1 02 47 bc b3 c8 a7 3c
       0.008092313 -0.020708513 -0.012146668 0.020481443
0000a0 50 97 1b 3d f9 56 5e 3c cb 11 39 bd 85 5a 79 bc
       0.0379861 0.013570541 -0.045182984 -0.015219335
0000b0 59 60 92 3c 5b d3 07 3c e4 22 8b bb 03 1b a6 3c
       0.017868208 0.008290137 -0.0042461026 0.020276552
0000c0 1f 6d 4d bd c0 c2 11 bd db 2b 08 bd a5 28 9f 3c
       -0.050152894 -0.03558612 -0.03324495 0.01942856
0000d0 50 8a 2a 3c 48 c9 62 bc c9 d5 4e 3c 04 12 f6 bc
       0.010408953 -0.0138419345 0.012624213 -0.030037887
0000e0 62 89 9f 3b f1 b8 c6 3c 02 93 19 bd e5 00 18 bc
       0.004868672 0.024258109 -0.037493713 -0.009277557
0000f0 7a 59 32 3d b5 69 29 3b ae e7 3d bd 8f a4 06 bc
       0.043542363 0.002585036 -0.046363525 -0.008217945
000100 23 61 78 3c b7 69 36 bc 7b e9 ba 3c 17 38 87 3c
       0.015159878 -0.011133603 0.02281641 0.016506238
000110 85 f0 ac bb 33 43 dc bc db 2b d1 3c c3 e1 f8 bc
       -0.0052776956 -0.026887512 0.025533607 -0.03038109
000120 e5 e9 72 bc b5 d6 4b 3b 2e 40 06 bd b4 e6 d5 3b
       -0.014826273 0.0031103317 -0.03277605 0.006527746
000130 f7 21 58 bc 1a 44 56 3c 04 7f fc bb 7e b8 1a 3a
       -0.013191692 0.01307776 -0.007705571 0.0005902125
000140 ad cd e5 bc 3c 97 b0 bc a3 94 5d bd 8d d6 ac 3b
       -0.028052175 -0.02155649 -0.05409683 0.0052746
000150 7b fe 7c bc 14 79 22 bd a1 87 53 bd 59 0e df bc
       -0.015441532 -0.03966625 -0.051643018 -0.027228521
000160 21 32 81 bd 95 77 6c 3d 8b 6c b8 bb a4 bc 73 3b
       -0.063083895 0.05773123 -0.0056281737 0.0037191296
000170 d0 00 cf 3c 5a 51 8b bc 9a 6e 09 3c 8b 68 08 3d
       0.025268942 -0.017006565 0.008388186 0.033302825
000180 51 b6 89 bc 88 c9 3e 3d 38 70 62 3c 91 2f 86 bc
       -0.016810568 0.046578914 0.0138207 -0.016380103
000190 6b 89 ca bc fb a6 6c bc bf 70 c1 3b e6 c4 bf 3c
       -0.02472373 -0.014444108 0.005903333 0.023409318
0001a0 65 a6 6b 3b f0 3b 44 bd ea 7d a2 3c c2 46 18 3d
       0.0035957333 -0.047908723 0.019835431 0.037176855
0001b0 46 54 87 3c 71 4d 48 3b d9 71 9c 3b 21 15 97 bc
       0.016519677 0.0030563737 0.004774314 -0.018442692
0001c0 64 fd 3a bd c8 48 14 3a 13 44 18 3d e3 d3 26 3d
       -0.04565181 0.0005656597 0.037174296 0.040729415
0001d0 5e e0 9b b9 7b 1a 18 bb ed b2 ae 3c c4 32 a6 3c
       -0.0002973107 -0.0023209143 0.021325553 0.020287879
0001e0 07 80 85 3c 04 4c c3 3c 78 e0 f6 bb 1d 16 cb 3c
       0.0162964 0.023839958 -0.007534083 0.024790818
0001f0 39 81 51 3d 7d 54 02 3b 01 c5 dc 3c e5 4e 00 bc
       0.051148627 0.0019886785 0.026949408 -0.00783131
000200 70 f3 01 bd af 6f 13 bd da a7 be bb 41 67 3c bd
       -0.0317263 -0.03599518 -0.0058183493 -0.045996908
000210 ff 93 d8 bc f2 39 c2 3c fe 07 8d bc 80 7e 15 bd
       -0.026437758 0.023709271 -0.017215725 -0.036497593
000220 5d df c8 bc 3b 07 e0 bb 7f a0 66 bc db ea 06 bd
       -0.02452057 -0.0068367994 -0.014076351 -0.03293882
000230 4b 85 20 bd 3e 4e 29 bc 0d a0 f7 3b 12 ce 16 3c
       -0.039189618 -0.010333596 0.0075569213 0.009204404
000240 90 fc 98 bc 72 45 a0 3c fb f1 38 3d ed 1e e1 bc
       -0.018675119 0.019564364 0.045152646 -0.027480567
000250 bc 8a 1d 3d 63 df e6 bc 04 d2 95 3c 04 27 ab bc
       0.038462386 -0.028182691 0.01828862 -0.020892628
000260 47 e3 45 bc 8b d6 18 3c 32 49 59 3d 09 8e 2b bd
       -0.012078113 0.009328495 0.05304832 -0.041883502
000270 1d 2c a6 3c bd 2c e8 bb 08 09 3f bc 32 58 07 3d
       0.020284707 -0.0070854113 -0.011659868 0.033043094
000280 ff 9b 0e 3b dc 31 8e 3c 07 41 64 bd 2a 8d 09 bd
       0.0021760461 0.01735776 -0.055726077 -0.03358189
000290 ed e6 70 3d 67 1b d3 3c 13 0b 44 3c 5e fa 51 3d
       0.058813978 0.025769902 0.011965531 0.05126416
0002a0 c8 d4 c9 3c 03 0b e6 bc e9 f3 cd bc 80 b3 57 bc
       0.024637595 -0.028081423 -0.02514072 -0.013165355
0002b0 a7 6a 3a 3b a6 24 ae 3b 10 4f 82 3c be ab a8 3c
       0.0028444917 0.0053144274 0.01590684 0.020589706
0002c0 c2 97 8d bc 16 6c fc 3a 99 c6 e9 3b 9b 58 0f bc
       -0.017284278 0.0019258286 0.0071342704 -0.0087491525
0002d0 0b c1 8b bc 52 c8 5b 3c 84 69 68 3c 8b e0 36 bd
       -0.017059823 0.013414459 0.014185313 -0.044647735
0002e0 d8 d2 17 bd 54 a2 80 bd ec 26 c2 bc 88 af 37 bd
       -0.03706631 -0.06280962 -0.0237002 -0.044845134
0002f0 fc 60 11 3d 6c f1 71 bb 91 0e 8b 3c 8b 29 f6 3c
       0.035492882 -0.003691758 0.01697472 0.030049106
000300 60 5c 95 bc 93 34 d9 3c a0 aa 8c 3d ff f7 88 3c
       -0.018232524 0.026514327 0.06868482 0.016719816
000310 72 d7 c4 bc a0 bd 8a bd 99 4e 8a 3c 6c 77 c7 ba
       -0.024028514 -0.06774449 0.016883181 -0.0015218086
000320 85 30 0a 3d 8d e5 20 3a 0b 9b 2b bd f0 27 8e 3b
       0.033737678 0.00061377214 -0.041895907 0.004338257
000330 b4 8f ae 3b 39 a7 cf 3c fa 2e 7f bc 64 08 35 bd
       0.0053271893 0.025348293 -0.015575165 -0.044197455
000340 04 da 91 bc ee 50 78 bb f8 17 86 bc 8f da ba 3c
       -0.017804153 -0.0037890035 -0.016368851 0.022809295
000350 fe 60 9f bc d3 8e 4f 3d e2 8b b2 3b 41 6e 1c 3c
       -0.01945543 0.050673317 0.0054488042 0.009547771
000360 98 a5 e8 bc 75 31 39 3d 06 dd 63 3d 9f 0e d6 bc
       -0.028399274 0.04521318 0.055630706 -0.026130019
000370 59 30 dd 3c 37 b7 73 3c e2 36 bd 3c aa d3 33 3a
       0.027000593 0.014875225 0.02309746 0.00068598485
000380 56 71 f2 3c 93 aa 3f bc 2c b6 9b bc 74 88 80 bc
       0.029595058 -0.011698383 -0.019007765 -0.015690066
000390 50 91 ed 3a dd c0 3c bd 3f 73 16 bc 3b 23 2d bc
       0.0018124972 -0.046082366 -0.00918275 -0.010567482
0003a0 cb 20 17 bd 4c 78 ab bc 27 d8 a8 bc c9 95 ce bb
       -0.03689651 -0.020931385 -0.020610882 -0.006304477
0003b0 16 84 2f bd 6b ea ae bc 1f 36 8f 3d 21 2b 51 bd
       -0.042850576 -0.021352014 0.06992745 -0.05106652
0003c0 20 41 50 3c 2e 59 b8 3c ff 4b 30 3d c1 99 26 bd
       0.0127108395 0.022503462 0.043041226 -0.040673975
0003d0 8f 22 cf 3c 9d 34 9c 3c e2 f2 13 bc 6c 2b 0a 3d
       0.025285034 0.019068057 -0.009030076 0.033732817
0003e0 0b 73 cd bb eb 4f 05 bd b6 a8 f8 3c 05 1b 7f 3d
       -0.0062698177 -0.03254692 0.030353885 0.062281627
0003f0 7b e1 fd bc 75 05 45 bd 67 6a 10 3d f8 53 db bb
       -0.030991307 -0.048100907 0.035257723 -0.0066933595

network.5.linear_5.bias f4 [100]
000000 77 6a 31 bd cc 86 48 3d 11 ad 82 ba f9 f3 2e 3d
       -0.043314423 0.048956677 -0.0009969791 0.04271314
000010 ba c3 ca 3c 24 10 ba bb 19 24 49 bc 24 67 d4 ba
       0.024751533 -0.0056781936 -0.012276673 -0.0016205055
000020 56 48 26 3c a9 99 3d 3d 34 c6 44 3d d2 1a 42 3c
       0.010149082 0.04628912 0.048040584 0.011847215
000030 47 1b 85 bb 6a 53 b1 bc 49 77 82 3a 94 30 97 bb
       -0.0040620896 -0.02164622 0.0009953763 -0.0046139453
000040 39 d8 9a 3c f6 81 fe 3c ed dc 44 3d af 71 0e 3b
       0.018901931 0.03106783 0.048062254 0.0021735241
000050 fe 05 56 3c 1b 6d 75 3d 7c da c8 3a f0 da a4 ba
       0.013062952 0.059918504 0.0015323902 -0.0012577455
000060 ec e9 70 3c 9e 49 40 bb de 11 3f bc cc d4 3b bc
       0.014704209 -0.0029340754 -0.011661975 -0.011464309
000070 cf 42 35 3d d4 61 a7 bb 69 68 0c 3d eb 3d 7c bc
       0.044253167 -0.0051080976 0.03427926 -0.015395622
000080 4c 32 ef 3c df 9c 01 bc f4 bd 4d ba 6e ba d6 3c
       0.029198788 -0.007910936 -0.00078484346 0.026211943
000090 ae 69 3a 3d 51 0d 47 3b 2d e0 43 3d d5 53 ea 3c
       0.04551094 0.0030372927 0.047821213 0.028604427
0000a0 f2 90 1c bd 77 3b 2a 3d d7 67 09 3d 51 4b 7d 3d
       -0.038224168 0.041560616 0.033546295 0.061839405
0000b0 e5 5b b7 3a 75 07 34 3d 25 c6 4c 3b 44 bc 24 3d
       0.0013989179 0.043952424 0.0031246033 0.040218607
0000c0 b9 f2 2d 3d d6 55 1b 3d 7a a5 0f 3d d0 d8 bc bc
       0.042467806 0.037923656 0.03506992 -0.023052603
0000d0 0e f0 05 3c 1e 4e 87 3d 91 e3 87 bc cb db 1d bd
       0.008174909 0.066066965 -0.016588004 -0.03853969
0000e0 b1 bf 61 3d 1f f9 93 ba f7 82 ca 3c 33 e7 46 bd
       0.05511445 -0.0011289454 0.024720652 -0.048560333
0000f0 ee 1b ea bc 3b 6c 1c bc ba 70 89 bd f2 a2 90 3d
       -0.028577771 -0.0095472885 -0.06710954 0.07062329
000100 40 fa a3 3c e8 d5 e7 3c 4b 2b 89 bc 12 e7 39 3d
       0.02001679 0.02830024 -0.016744277 0.04538638
000110 c3 2e 78 3b 5e 5b ce bc 71 f0 5d bd f2 d8 84 3d
       0.003786967 -0.025190052 -0.05418438 0.064866915
000120 17 a8 12 3b 34 9f 98 bb c5 59 c2 3c 44 23 9f bc
       0.0022378021 -0.0046576504 0.023724446 -0.019425996
000130 20 16 66 3c c7 b0 5a 3d a6 c9 a3 3c ec c3 27 3d
       0.014043361 0.053391244 0.019993614 0.04095833
000140 70 58 92 3c ee 90 e8 3c 6c c5 85 bd de cb ac bc
       0.017864436 0.02838942 -0.06531796 -0.021093305
000150 0c 05 91 3c d7 4a ba bc 88 c3 03 3d d3 6b 3a 3b
       0.017702602 -0.022740765 0.032168895 0.0028445616
000160 91 c7 83 bc d9 f1 5c 3d 1b aa c7 3c 3a da 7f bc
       -0.016086372 0.05394158 0.024373105 -0.015615994
000170 2f 76 28 bc c7 fa 87 3a ab af 76 bb d6 5e c5 bc
       -0.010282083 0.001037442 -0.0037641327 -0.024093073
000180 c1 50 9a 3c 1c 14 f8 3c 28 a7 66 3c 36 34 13 3c
       0.018837335 0.030283026 0.014077939 0.008984616

network.6.linear_6.weight f4 [1, 100]
000000 a1 2d 70 bd 05 63 ed bd 24 95 27 be e7 64 11 be
       -0.058637265 -0.11591152 -0.16365486 -0.14198647
000010 9e be 0f bd 4f b0 fc bd b2 ad 94 bd ed 08 44 bd
       -0.035093896 -0.12338316 -0.07259692 -0.047860075
000020 79 95 f5 bd 8c 9b c8 bc 69 e4 c6 bc 14 85 b0 bc
       -0.119914 -0.024488233 -0.024278836 -0.021547832
000030 2c 32 f8 bc f3 ed 93 bd f2 9e f4 bd c8 3f 96 bd
       -0.030297361 -0.072231196 -0.11944379 -0.07336384
000040 b4 37 9b bd 6c 78 90 bb 88 cb 95 3d fd 31 a3 bd
       -0.07578984 -0.0044088867 0.07314211 -0.07968519
000050 27 21 f3 bd ec 27 8f 3b d9 5b b6 bd ee 71 8c bc
       -0.11871558 0.0043687727 -0.08904237 -0.01714417
000060 d5 cc bc bc e7 f3 ae bd a7 84 03 be df 14 6e bd
       -0.02304689 -0.085426144 -0.12843572 -0.058125373
000070 0b c7 ab bd 5f 71 46 bd 86 c3 0f be 62 9c 81 3a
       -0.08387574 -0.048447963 -0.1403943 0.0009888525
000080 1c 28 87 bd e2 38 4c bd d7 88 04 be 78 a8 c1 bc
       -0.06599447 -0.049858935 -0.12942825 -0.023639902
000090 37 d6 8e bd 2a a2 03 ba ae 4d 16 be ff b4 0b be
       -0.06974452 -0.0005021418 -0.1467807 -0.13643263
0000a0 65 fb 7d bd e0 6a 65 bd b1 6b 17 be f6 a8 9e 3c
       -0.062007327 -0.056010127 -0.14787175 0.019367676
0000b0 07 25 ab bd 74 16 15 be 00 b8 b5 bd 2e 01 11 be
       -0.08356672 -0.14559346 -0.08872986 -0.14160606
0000c0 cb cc 6f bd 3b 4e a6 bc b3 0b 9b 3d a1 46 14 ba
       -0.058544915 -0.020300975 0.07570591 -0.00056562765
0000d0 14 7d bc bd 2a 9c 16 be 08 32 5c 39 7c 90 af bd
       -0.09203544 -0.1470801 0.00020999473 -0.0857248
0000e0 d7 5f 85 bb 32 fd 0e be dc 42 20 bd c4 d7 3f bd
       -0.004070263 -0.13963774 -0.039126262 -0.04683663
0000f0 a4 28 8c bd 2d 69 a5 bd 80 79 44 bd f3 3e c9 bd
       -0.06843689 -0.08076701 -0.047967434 -0.0982646
000100 f9 2f c6 bd 0f e6 cc bc 4b 3a bc bb 52 b3 3e be
       -0.09677119 -0.025012044 -0.0057442538 -0.18623093
000110 ca fa 90 ba 61 2f d9 bb 10 59 d7 bd 22 39 c6 bd
       -0.0011061069 -0.0066279625 -0.10515034 -0.09678866
000120 b8 47 eb bd e9 fa 99 3a da 31 54 bd 23 a8 21 3b
       -0.11488289 0.0011747751 -0.051805355 0.0024666868
000130 80 20 c5 bd 1d a8 95 bd a6 67 35 3b 58 81 13 be
       -0.096253395 -0.07307456 0.0027680187 -0.1440481
000140 18 c8 2a bc 9b 13 8e bd 3a 90 6f bd ef 7e 32 bd
       -0.010423683 -0.06937333 -0.058487155 -0.043578085
000150 f7 36 0c be e9 35 8e bd 86 e9 8d bd a8 60 21 be
       -0.13692842 -0.06943876 -0.06929307 -0.15759528
000160 c9 19 cb bd db 7b 4f ba 1a 4c 21 bc d8 46 9e bd
       -0.099170275 -0.0007914879 -0.009844804 -0.07728356
000170 5f da 81 bb 25 89 22 bd 20 c5 1a be c8 38 0f be
       -0.0039627994 -0.039681572 -0.1511426 -0.13986504
000180 21 ab 20 be 38 58 eb bd e9 ee c1 bd b7 4f 53 bc
       -0.1569028 -0.11491436 -0.094693966 -0.0128974235

exp_avg f4 [16, 2, 3, 3]
000000 37 1b 93 39 9e 8c 66 3a 9d 0a 8e 39 8d 3c 9a b9
       0.00028058302 0.00087947573 0.00027092258 -0.00029418283
000010 2f 66 1b 39 b7 08 d2 b8 70 43 e6 b9 5c 36 ef b9
       0.00014820018 -0.000100152036 -0.00043919263 -0.00045626133
000020 cf 90 35 ba 54 13 02 ba b9 4e 8f b9 5d a1 0c b9
       -0.000692618 -0.00049619866 -0.00027333738 -0.00013411553
000030 b7 3b 85 b9 3f 26 27 ba 54 1c b6 b9 b8 39 43 39
       -0.00025412228 -0.00063762435 -0.0003473485 0.00018618151
000040 24 39 d5 38 64 e1 b9 38 4c f4 3e ba bd 56 1e ba
       0.00010167275 8.86347e-05 -0.0007284328 -0.00060401467
000050 55 91 3a ba 17 a9 a4 ba e8 e4 90 ba 55 17 22 ba
       -0.0007116993 -0.00125626 -0.0011054548 -0.00061832863
000060 62 6c 59 ba 3e a6 81 ba c2 de 3f ba c4 3e f7 b9
       -0.00082940434 -0.0009891463 -0.0007319265 -0.00047158275
000070 3a 60 d1 b9 90 b8 08 ba 81 11 1f ba 8e 11 21 ba
       -0.0003993528 -0.000521549 -0.0006067977 -0.00061442784
000080 18 7c fa b9 93 ea 78 b9 97 e9 28 ba 97 d8 60 ba
       -0.00047776173 -0.00023738509 -0.0006443499 -0.0008577196
000090 21 cd 61 3a 81 ea 89 3a c8 b6 4e 3a ed fa 80 39
       0.00086136354 0.0010522158 0.0007885513 0.00024601017
0000a0 76 3b 14 3a a7 de 58 3a 48 c1 c6 38 7a 95 32 39
       0.00056546123 0.0008272924 9.477377e-05 0.00017031087
0000b0 94 43 0f 3a 20 45 45 b8 63 67 9e b7 32 73 0a 39
       0.0005465087 -4.7032838e-05 -1.8883211e-05 0.00013203619
0000c0 1e 56 8b b9 b7 89 d4 b9 a6 ba 55 38 cd 9b 9d 39
       -0.00026576308 -0.00040538397 5.0956987e-05 0.00030061454
0000d0 3e e3 de 39 62 ac d8 39 f8 1a 05 39 4a ac 30 39
       0.00042512448 0.00041327166 0.00012693915 0.0001684885
0000e0 73 59 b3 39 57 a0 48 39 b7 5b 7c 39 cb 2a 3f 39
       0.00034208185 0.00019133218 0.00024066759 0.00018231121
0000f0 fe 74 ab 38 3e cd 0f 39 0f 7a 8e 38 47 54 c8 b8
       8.175707e-05 0.00013714001 6.793823e-05 -9.552441e-05
000100 43 79 cf b8 43 44 73 38 fe a4 df b8 28 d5 d7 38
       -9.893116e-05 5.799929e-05 -0.00010664201 0.00010291702
000110 6a e5 ae 39 55 fb 81 39 73 71 53 38 b2 3a 37 b9
       0.00033358793 0.00024792054 5.0411978e-05 -0.00017474106
000120 57 7d 85 3a 76 b2 3e 3a 85 ac 29 3a 64 0a a8 3a
       0.0010184449 0.00072745176 0.0006472546 0.001282048
000130 85 12 82 3a ef e6 14 3a 85 a7 84 3a 69 05 7b 3a
       0.0009923732 0.0005680164 0.0010120725 0.00095756963
000140 52 1e 73 3a 6c 62 82 3a ea 1b 65 3a f9 8d 63 3a
       0.00092742324 0.0009947545 0.0008739816 0.00086805184
000150 33 83 4d 3a 4d 98 41 3a 31 25 5c 3a 16 d7 7f 3a
       0.00078396796 0.00073850603 0.0008397876 0.00097595283
000160 d8 56 44 3a 43 1f 13 3a 0f 12 67 b9 cc ac 98 b9
       0.00074897474 0.00056122633 -0.00022036604 -0.00029120443
000170 0e 54 eb 38 e8 b1 ba 36 7c 06 be 38 e1 0d c6 39
       0.000112213296 5.563943e-06 9.061114e-05 0.00037775844
000180 d1 d3 19 b9 b3 8b 94 37 f0 ee c8 b9 1c 6d af b9
       -0.00014670125 1.7708027e-05 -0.00038324995 -0.00033459894
000190 14 41 13 b8 6e cd 76 39 55 a0 c4 b9 d2 12 96 b6
       -3.510814e-05 0.00023536917 -0.0003750349 -4.4725393e-06
0001a0 e0 eb b8 39 0b 6c 0e 3a 7e c7 e0 39 ce 17 b0 39
       0.00035270955 0.000543297 0.00042873243 0.00033587072
0001b0 0f aa d5 b9 15 84 1a b9 e2 bc bd b9 30 0e 4b ba
       -0.0004075323 -0.00014735789 -0.00036189618 -0.00077459496
0001c0 da 62 1b ba 1a 34 25 ba 29 c4 2d ba 60 ee 08 ba
       -0.0005927511 -0.0006302014 -0.00066286564 -0.0005223509
0001d0 1f 4b 15 ba 63 df 48 b9 a8 20 64 b9 4d 43 84 b9
       -0.0005695093 -0.00019156704 -0.0002175594 -0.00025227145
0001e0 93 74 a8 b8 c2 d9 56 b9 9c 39 24 b9 5c 83 8f b9
       -8.032578e-05 -0.00020489751 -0.0001566172 -0.00027372956
0001f0 cd 58 ea b9 c3 8d 7e b9 d5 3d de b9 17 95 e0 b9
       -0.0004469812 -0.00024276138 -0.00042389208 -0.0004283569
000200 88 9c 24 b9 d8 f1 df b9 8e 1e dd b9 6a 88 87 b9
       -0.00015698571 -0.00042714062 -0.0004217517 -0.00025850843
000210 93 a2 c7 b9 88 25 b2 b9 90 6f c3 b9 06 5b 8a b8
       -0.00038077365 -0.0003397877 -0.0003727642 -6.597307e-05
000220 f2 7a a8 b7 88 d3 79 37 67 31 3a b9 0a 06 15 38
       -2.0084412e-05 1.48908075e-05 -0.00017756746 3.5529993e-05
000230 30 80 da 38 51 e0 5c b9 f3 bb 91 b9 29 e6 b1 b9
       0.00010418927 -0.000210644 -0.00027796588 -0.00033931553
000240 bb b0 21 ba c0 c1 6d ba 1a 0e 0a ba 6c 29 de b9
       -0.00061679975 -0.00090697035 -0.00052663835 -0.00042374
000250 06 cf 15 ba b3 16 92 b9 ff 30 90 b9 fe ec ce b9
       -0.0005714748 -0.00027864202 -0.00027502325 -0.00039467955
000260 de 77 cc b9 fb c1 61 b8 4f 60 f8 b7 a7 bf bb b8
       -0.0003899922 -5.382484e-05 -2.9608751e-05 -8.952553e-05
000270 d6 7b c9 b9 06 26 4b 38 10 54 9e 38 70 68 db b8
       -0.00038429972 4.8434384e-05 7.549685e-05 -0.00010462187
000280 5f 0c b5 b9 6d f4 02 ba 2d 98 a6 39 f1 41 d5 39
       -0.00034532227 -0.0004995529 0.00031775367 0.00040675656
000290 22 0d 39 37 0c 12 d6 b8 03 c1 03 b9 36 38 b0 b8
       1.1029917e-05 -0.00010207677 -0.00012565036 -8.402804e-05
0002a0 ef 58 4e b9 db 8d f1 b9 f1 88 ea b9 95 72 bf b9
       -0.00019678821 -0.00046072793 -0.00044733987 -0.0003651573
0002b0 39 08 a8 b9 50 a1 96 b9 27 19 b8 b9 05 5d 08 ba
       -0.00032049583 -0.00028730417 -0.00035113955 -0.0005201849
0002c0 4b d7 fa b9 91 34 18 b9 53 b0 2e b9 b9 cf 27 b9
       -0.00047844122 -0.00014515432 -0.00016659619 -0.00016003744
0002d0 18 26 03 ba 8a 3d 22 ba 5a 66 9e 37 bb 75 9d b6
       -0.000500293 -0.00061889796 1.8882729e-05 -4.6926702e-06
0002e0 b6 6f 15 b9 e6 ce f5 39 da ef d9 39 12 8a 2d 3a
       -0.00014251363 0.00046884193 0.0004156817 0.00066200003
0002f0 bd 64 48 3a 74 61 1c 3a d7 99 08 3a 1e 95 df 39
       0.00076444057 0.00059654494 0.0005210912 0.00042644975
000300 1b 7a 33 3a ae ff 76 3a 99 b1 c2 39 39 03 e2 38
       0.0006846503 0.00094222545 0.00037134884 0.0001077712
000310 59 cb 32 39 b4 a3 83 39 df 0d 5b 38 ba c6 cd 39
       0.00017051156 0.00025108235 5.2226587e-05 0.0003924871
000320 a6 5a a5 38 3f b2 b0 38 d7 cc 69 39 59 a9 1a b8
       7.884698e-05 8.425535e-05 0.0002229692 -3.687418e-05
000330 b1 cc 28 b9 d4 5c 7b b9 71 cd e9 b9 44 f7 c2 b9
       -0.00016097982 -0.00023971807 -0.0004459429 -0.0003718679
000340 f9 64 b5 b9 23 2f 86 b9 34 ad c5 b9 7c 25 f4 b9
       -0.0003459824 -0.0002559359 -0.00037703814 -0.00046567235
000350 bd a1 9c b9 a9 34 16 b9 81 48 0a b9 17 88 3b b9
       -0.00029875143 -0.00014324732 -0.00013187715 -0.00017884407
000360 9e 6d 02 b9 7f 47 8b b9 df 5a 33 b8 b9 83 81 b9
       -0.00012438602 -0.00026565415 -4.2761556e-05 -0.00024702938
000370 a8 6b 26 b9 30 c3 2d b9 03 7b 19 b9 93 ed 85 38
       -0.00015871099 -0.00016571279 -0.00014637042 6.386186e-05
000380 2c 81 a2 39 12 a5 2f 3a 60 5a e8 39 75 c9 e5 39
       0.00030995288 0.00067003176 0.00044317823 0.0004382838
000390 c1 21 e1 39 0c 00 11 3a 5d e7 28 3a 51 7c 66 38
       0.00042940493 0.0005531318 0.0006443167 5.4952052e-05
0003a0 bb 87 86 39 5b 72 0a 3a 95 f3 cc b9 3d 5e 2c ba
       0.000256596 0.00052813225 -0.00039091395 -0.0006575322
0003b0 aa d9 65 ba 10 81 bd b9 b9 bf 32 ba d1 8a 12 ba
       -0.0008768091 -0.00036145048 -0.000681873 -0.0005590143
0003c0 13 e4 8d b8 20 71 06 ba fc 5a ca b9 8d fa 1d 37
       -6.765886e-05 -0.0005128551 -0.0003859623 9.416265e-06
0003d0 64 bb 80 b9 37 fd b3 b9 79 d1 ce 36 40 db f7 b8
       -0.0002455368 -0.000343302 6.1636642e-06 -0.00011818716
0003e0 d6 7c c2 b9 b2 62 3d b9 b5 4d 3d b9 3b 74 84 b8
       -0.00037095573 -0.00018061211 -0.00018053393 -6.3159e-05
0003f0 08 8f e0 b8 75 40 9f 39 5b ec 13 3a 7e bc 16 b9
       -0.00010707794 0.00030374867 0.00056428247 -0.00014375334
